…
        "val_count": 11646,
        "image_size": [
            128,
            128,
            3
        ],
        "classes": 62
    },
    "training": {
        "epochs": 40,
        "batch_size": 32,
        "optimizer": "adam",
        "learning_rate": 0.0001,
        "loss": "cross_entropy_loss",
        "metrics": [
            "accuracy"
        ],
        "trained_part": "classifier_and_last_vgg13_feature_layers",
        "unfrozen_conv_layer_count": 1,
        "unfrozen_feature_indices": [
            22
        ]
    },
    "model_architecture": "VGG(\n  (features): Sequential(\n    (0): Conv2d(3, 64, kernel_size=(3, 3), stride=(1, 1), padding=(1, 1))\n    (1): ReLU(inplace=True)\n    (2): Conv2d(64, 64, kernel_size=(3, 3), stride=(1, 1), padding=(1, 1))\n    (3): ReLU(inplace=True)\n    (4): MaxPool2d(kernel_size=2, stride=2, padding=0, dilation=1, ceil_mode=False)\n    (5): Conv2d(64, 128, kernel_size=(3, 3), stride=(1, 1), padding=(1, 1))\n    (6): ReLU(inplace=True)\n    (7): Conv2d(128, 128, kernel_size=(3, 3), stride=(1, 1), padding=(1, 1))\n    (8): ReLU(inplace=True)\n    (9): MaxPool2d(kernel_size=2, stride=2, padding=0, dilation=1, ceil_mode=False)\n    (10): Conv2d(128, 256, kernel_size=(3, 3), stride=(1, 1), padding=(1, 1))\n    (11): ReLU(inplace=True)\n    (12): Conv2d(256, 256, kernel_size=(3, 3), stride=(1, 1), padding=(1, 1))\n    (13): ReLU(inplace=True)\n    (14): MaxPool2d(kernel_size=2, stride=2, padding=0, dilation=1, ceil_mode=False)\n    (15): Conv2d(256, 512, kernel_size=(3, 3), stride=(1, 1), padding=(1, 1))\n    (16): ReLU(inplace=True)\n    (17): Conv2d(512, 512, kernel_size=(3, 3), stride=(1, 1), padding=(1, 1))\n    (18): ReLU(inplace=True)\n    (19): MaxPool2d(kernel_size=2, stride=2, padding=0, dilation=1, ceil_mode=False)\n    (20): Conv2d(512, 512, kernel_size=(3, 3), stride=(1, 1), padding=(1, 1))\n    (21): ReLU(inplace=True)\n    (22): Conv2d(512, 512, kernel_size=(3, 3), stride=(1, 1), padding=(1, 1))\n    (23): ReLU(inplace=True)\n    (24): MaxPool2d(kernel_size=2, stride=2, padding=0, dilation=1, ceil_mode=False)\n  )\n  (avgpool): AdaptiveAvgPool2d(output_size=(7, 7))\n  (classifier): Sequential(\n    (0): Linear(in_features=25088, out_features=4096, bias=True)\n    (1): ReLU(inplace=True)\n    (2): Dropout(p=0.5, inplace=False)\n    (3): Linear(in_features=4096, out_features=4096, bias=True)\n    (4): ReLU(inplace=True)\n    (5): Dropout(p=0.5, inplace=False)\n    (6): Linear(in_features=4096, out_features=62, bias=True)\n  )\n)",
    "history": {
        "loss": [
            0.3186417274675625,
            0.02113566610345176,
            0.013539862984023474
        ],
        "accuracy": [
            0.9109379538968917,
            0.9936603954136122,
            0.9959672596162061
        ],
        "val_loss": [
            0.1507874365106287,
            0.17643805876326574,
…
