…
    "created_at": "2026-06-01T09:47:39.973407",
    "dataset": {
        "train_count": 58521,
        "val_count": 11646,
        "image_size": [
            128,
            128,
            3
        ],
        "classes": 62
    },
    "training": {
        "epochs": 40,
        "batch_size": 32,
        "optimizer": "adam",
        "learning_rate": 0.0001,
        "loss": "cross_entropy_loss",
        "metrics": [
            "accuracy"
        ],
        "trained_part": "feature_extractor_frozen_classifier_trainable"
    },
    "model_architecture": "GoogLeNet(\n  (conv1): BasicConv2d(\n    (conv): Conv2d(3, 64, kernel_size=(7, 7), stride=(2, 2), padding=(3, 3), bias=False)\n    (bn): BatchNorm2d(64, eps=0.001, momentum=0.1, affine=True, bias=True, track_running_stats=True)\n  )\n  (maxpool1): MaxPool2d(kernel_size=3, stride=2, padding=0, dilation=1, ceil_mode=True)\n  (conv2): BasicConv2d(\n    (conv): Conv2d(64, 64, kernel_size=(1, 1), stride=(1, 1), bias=False)\n    (bn): BatchNorm2d(64, eps=0.001, momentum=0.1, affine=True, bias=True, track_running_stats=True)\n  )\n  (conv3): BasicConv2d(\n    (conv): Conv2d(64, 192, kernel_size=(3, 3), stride=(1, 1), padding=(1, 1), bias=False)\n    (bn): BatchNorm2d(192, eps=0.001, momentum=0.1, affine=True, bias=True, track_running_stats=True)\n  )\n  (maxpool2): MaxPool2d(kernel_size=3, stride=2, padding=0, dilation=1, ceil_mode=True)\n  (inception3a): Inception(\n    (branch1): BasicConv2d(\n      (conv): Conv2d(192, 64, kernel_size=(1, 1), stride=(1, 1), bias=False)\n      (bn): BatchNorm2d(64, eps=0.001, momentum=0.1, affine=True, bias=True, track_running_stats=True)\n    )\n    (branch2): Sequential(\n      (0): BasicConv2d(\n        (conv): Conv2d(192, 96, kernel_size=(1, 1), stride=(1, 1), bias=False)\n        (bn): BatchNorm2d(96, eps=0.001, momentum=0.1, affine=True, bias=True, track_running_stats=True)\n      )\n      (1): BasicConv2d(\n        (conv): Conv2d(96, 128, kernel_size=(3, 3), stride=(1, 1), padding=(1, 1), bias=False)\n        (bn): BatchNorm2d(128, eps=0.001, momentum=0.1, affine=True, bias=True, track_running_stats=True)\n      )\n    )\n    (branch3): Sequential(\n      (0): BasicConv2d(\n        (conv): Conv2d(192, 16, kernel_size=(1, 1), stride=(1, 1), bias=False)\n        (bn): BatchNorm2d(16, eps=0.001, momentum=0.1, affine=True, bias=True, track_running_stats=True)\n      )\n      (1): BasicConv2d(\n        (conv): Conv2d(16, 32, kernel_size=(3, 3), stride=(1, 1), padding=(1, 1), bias=False)\n        (bn): BatchNorm2d(32, eps=0.001, momentum=0.1, affine=True, bias=True, track_running_stats=True)\n      )\n    )\n    (branch4): Sequential(\n      (0): MaxPool2d(kernel_size=3, stride=1, padding=1, dilation=1, ceil_mode=True)\n      (1): BasicConv2d(\n        (conv): Conv2d(192, 32, kernel_size=(1, 1), stride=(1, 1), bias=False)\n        (bn): BatchNorm2d(32, eps=0.001, momentum=0.1, affine=True, bias=True, track_running_stats=True)\n      )\n    )\n  )\n  (inception3b): Inception(\n    (branch1): BasicConv2d(\n      (conv): Conv2d(256, 128, kernel_size=(1, 1), stride=(1, 1), bias=False)\n      (bn): BatchNorm2d(128, eps=0.001, momentum=0.1, affine=True, bias=True, track_running_stats=True)\n    )\n    (branch2): Sequential(\n      (0): BasicConv2d(\n        (conv): Conv2d(256, 128, kernel_size=(1, 1), stride=(1, 1), bias=False)\n        (bn): BatchNorm2d(128, eps=0.001, momentum=0.1, affine=True, bias=True, track_running_stats=True)\n      )\n      (1): BasicConv2d(\n        (conv): Conv2d(128, 192, kernel_size=(3, 3), stride=(1, 1), padding=(1, 1), bias=False)\n        (bn): BatchNorm2d(192, eps=0.001, momentum=0.1, affine=True, bias=True, track_running_stats=True)\n      )\n    )\n    (branch3): Sequential(\n      (0): BasicConv2d(\n        (conv): Conv2d(256, 32, kernel_size=(1, 1), stride=(1, 1), bias=False)\n        (bn): BatchNorm2d(32, eps=0.001, momentum=0.1, affine=True, bias=True, track_running_stats=True)\n      )\n      (1): BasicConv2d(\n        (conv): Conv2d(32, 96, kernel_size=(3, 3), stride=(1, 1), padding=(1, 1), bias=False)\n        (bn): BatchNorm2d(96, eps=0.001, momentum=0.1, affine=True, bias=True, track_running_stats=True)\n      )\n    )\n    (branch4): Sequential(\n      (0): MaxPool2d(kernel_size=3, stride=1, padding=1, dilation=1, ceil_mode=True)\n      (1): BasicConv2d(\n        (conv): Conv2d(256, 64, kernel_size=(1, 1), stride=(1, 1), bias=False)\n        (bn): BatchNorm2d(64, eps=0.001, momentum=0.1, affine=True, bias=True, track_running_stats=True)\n      )\n    )\n  )\n  (maxpool3): MaxPool2d(kernel_size=3, stride=2, padding=0, dilation=1, ceil_mode=True)\n  (inception4a): Inception(\n    (branch1): BasicConv2d(\n      (conv): Conv2d(480, 192, kernel_size=(1, 1), stride=(1, 1), bias=False)\n      (bn): BatchNorm2d(192, eps=0.001, momentum=0.1, affine=True, bias=True, track_running_stats=True)\n    )\n    (branch2): Sequential(\n      (0): BasicConv2d(\n        (conv): Conv2d(480, 96, kernel_size=(1, 1), stride=(1, 1), bias=False)\n        (bn): BatchNorm2d(96, eps=0.001, momentum=0.1, affine=True, bias=True, track_running_stats=True)\n      )\n      (1): BasicConv2d(\n        (conv): Conv2d(96, 208, kernel_size=(3, 3), stride=(1, 1), padding=(1, 1), bias=False)\n        (bn): BatchNorm2d(208, eps=0.001, momentum=0.1, affine=True, bias=True, track_running_stats=True)\n      )\n    )\n    (branch3): Sequential(\n      (0): BasicConv2d(\n        (conv): Conv2d(480, 16, kernel_size=(1, 1), stride=(1, 1), bias=False)\n        (bn): BatchNorm2d(16, eps=0.001, momentum=0.1, affine=True, bias=True, track_running_stats=True)\n      )\n      (1): BasicConv2d(\n        (conv): Conv2d(16, 48, kernel_size=(3, 3), stride=(1, 1), padding=(1, 1), bias=False)\n        (bn): BatchNorm2d(48, eps=0.001, momentum=0.1, affine=True, bias=True, track_running_stats=True)\n      )\n    )\n    (branch4): Sequential(\n      (0): MaxPool2d(kernel_size=3, stride=1, padding=1, dilation=1, ceil_mode=True)\n      (1): BasicConv2d(\n        (conv): Conv2d(480, 64, kernel_size=(1, 1), stride=(1, 1), bias=False)\n        (bn): BatchNorm2d(64, eps=0.001, momentum=0.1, affine=True, bias=True, track_running_stats=True)\n      )\n    )\n  )\n  (inception4b): Inception(\n    (branch1): BasicConv2d(\n      (conv): Conv2d(512, 160, kernel_size=(1, 1), stride=(1, 1), bias=False)\n      (bn): BatchNorm2d(160, eps=0.001, momentum=0.1, affine=True, bias=True, track_running_stats=True)\n    )\n    (branch2): Sequential(\n      (0): BasicConv2d(\n        (conv): Conv2d(512, 112, kernel_size=(1, 1), stride=(1, 1), bias=False)\n        (bn): BatchNorm2d(112, eps=0.001, momentum=0.1, affine=True, bias=True, track_running_stats=True)\n      )\n      (1): BasicConv2d(\n        (conv): Conv2d(112, 224, kernel_size=(3, 3), stride=(1, 1), padding=(1, 1), bias=False)\n        (bn): BatchNorm2d(224, eps=0.001, momentum=0.1, affine=True, bias=True, track_running_stats=True)\n      )\n    )\n    (branch3): Sequential(\n      (0): BasicConv2d(\n        (conv): Conv2d(512, 24, kernel_size=(1, 1), stride=(1, 1), bias=False)\n        (bn): BatchNorm2d(24, eps=0.001, momentum=0.1, affine=True, bias=True, track_running_stats=True)\n      )\n      (1): BasicConv2d(\n        (conv): Conv2d(24, 64, kernel_size=(3, 3), stride=(1, 1), padding=(1, 1), bias=False)\n        (bn): BatchNorm2d(64, eps=0.001, momentum=0.1, affine=True, bias=True, track_running_stats=True)\n      )\n    )\n    (branch4): Sequential(\n      (0): MaxPool2d(kernel_size=3, stride=1, padding=1, dilation=1, ceil_mode=True)\n      (1): BasicConv2d(\n        (conv): Conv2d(512, 64, kernel_size=(1, 1), stride=(1, 1), bias=False)\n        (bn): BatchNorm2d(64, eps=0.001, momentum=0.1, affine=True, bias=True, track_running_stats=True)\n      )\n    )\n  )\n  (inception4c): Inception(\n    (branch1): BasicConv2d(\n      (conv): Conv2d(512, 128, kernel_size=(1, 1), stride=(1, 1), bias=False)\n      (bn): BatchNorm2d(128, eps=0.001, momentum=0.1, affine=True, bias=True, track_running_stats=True)\n    )\n    (branch2): Sequential(\n      (0): BasicConv2d(\n        (conv): Conv2d(512, 128, kernel_size=(1, 1), stride=(1, 1), bias=False)\n        (bn): BatchNorm2d(128, eps=0.001, momentum=0.1, affine=True, bias=True, track_running_stats=True)\n      )\n      (1): BasicConv2d(\n        (conv): Conv2d(128, 256, kernel_size=(3, 3), stride=(1, 1), padding=(1, 1), bias=False)\n        (bn): BatchNorm2d(256, eps=0.001, momentum=0.1, affine=True, bias=True, track_running_stats=True)\n      )\n    )\n    (branch3): Sequential(\n      (0): BasicConv2d(\n        (conv): Conv2d(512, 24, kernel_size=(1, 1), stride=(1, 1), bias=False)\n        (bn): BatchNorm2d(24, eps=0.001, momentum=0.1, affine=True, bias=True, track_running_stats=True)\n      )\n      (1): BasicConv2d(\n        (conv): Conv2d(24, 64, kernel_size=(3, 3), stride=(1, 1), padding=(1, 1), bias=False)\n        (bn): BatchNorm2d(64, eps=0.001, momentum=0.1, affine=True, bias=True, track_running_stats=True)\n      )\n    )\n    (branch4): Sequential(\n      (0): MaxPool2d(kernel_size=3, stride=1, padding=1, dilation=1, ceil_mode=True)\n      (1): BasicConv2d(\n        (conv): Conv2d(512, 64, kernel_size=(1, 1), stride=(1, 1), bias=False)\n        (bn): BatchNorm2d(64, eps=0.001, momentum=0.1, affine=True, bias=True, track_running_stats=True)\n      )\n    )\n  )\n  (inception4d): Inception(\n    (branch1): BasicConv2d(\n      (conv): Conv2d(512, 112, kernel_size=(1, 1), stride=(1, 1), bias=False)\n      (bn): BatchNorm2d(112, eps=0.001, momentum=0.1, affine=True, bias=True, track_running_stats=True)\n    )\n    (branch2): Sequential(\n      (0): BasicConv2d(\n        (conv): Conv2d(512, 144, kernel_size=(1, 1), stride=(1, 1), bias=False)\n        (bn): BatchNorm2d(144, eps=0.001, momentum=0.1, affine=True, bias=True, track_running_stats=True)\n      )\n      (1): BasicConv2d(\n        (conv): Conv2d(144, 288, kernel_size=(3, 3), stride=(1, 1), padding=(1, 1), bias=False)\n        (bn): BatchNorm2d(288, eps=0.001, momentum=0.1, affine=True, bias=True, track_running_stats=True)\n      )\n    )\n    (branch3): Sequential(\n      (0): BasicConv2d(\n        (conv): Conv2d(512, 32, kernel_size=(1, 1), stride=(1, 1), bias=False)\n        (bn): BatchNorm2d(32, eps=0.001, momentum=0.1, affine=True, bias=True, track_running_stats=True)\n      )\n      (1): BasicConv2d(\n        (conv): Conv2d(32, 64, kernel_size=(3, 3), stride=(1, 1), padding=(1, 1), bias=False)\n        (bn): BatchNorm2d(64, eps=0.001, momentum=0.1, affine=True, bias=True, track_running_stats=True)\n      )\n    )\n    (branch4): Sequential(\n      (0): MaxPool2d(kernel_size=3, stride=1, padding=1, dilation=1, ceil_mode=True)\n      (1): BasicConv2d(\n        (conv): Conv2d(512, 64, kernel_size=(1, 1), stride=(1, 1), bias=False)\n        (bn): BatchNorm2d(64, eps=0.001, momentum=0.1, affine=True, bias=True, track_running_stats=True)\n      )\n    )\n  )\n  (inception4e): Inception(\n    (branch1): BasicConv2d(\n      (conv): Conv2d(528, 256, kernel_size=(1, 1), stride=(1, 1), bias=False)\n      (bn): BatchNorm2d(256, eps=0.001, momentum=0.1, affine=True, bias=True, track_running_stats=True)\n    )\n    (branch2): Sequential(\n      (0): BasicConv2d(\n        (conv): Conv2d(528, 160, kernel_size=(1, 1), stride=(1, 1), bias=False)\n        (bn): BatchNorm2d(160, eps=0.001, momentum=0.1, affine=True, bias=True, track_running_stats=True)\n      )\n      (1): BasicConv2d(\n        (conv): Conv2d(160, 320, kernel_size=(3, 3), stride=(1, 1), padding=(1, 1), bias=False)\n        (bn): BatchNorm2d(320, eps=0.001, momentum=0.1, affine=True, bias=True, track_running_stats=True)\n      )\n    )\n    (branch3): Sequential(\n      (0): BasicConv2d(\n        (conv): Conv2d(528, 32, kernel_size=(1, 1), stride=(1, 1), bias=False)\n        (bn): BatchNorm2d(32, eps=0.001, momentum=0.1, affine=True, bias=True, track_running_stats=True)\n      )\n      (1): BasicConv2d(\n        (conv): Conv2d(32, 128, kernel_size=(3, 3), stride=(1, 1), padding=(1, 1), bias=False)\n        (bn): BatchNorm2d(128, eps=0.001, momentum=0.1, affine=True, bias=True, track_running_stats=True)\n      )\n    )\n    (branch4): Sequential(\n      (0): MaxPool2d(kernel_size=3, stride=1, padding=1, dilation=1, ceil_mode=True)\n      (1): BasicConv2d(\n        (conv): Conv2d(528, 128, kernel_size=(1, 1), stride=(1, 1), bias=False)\n        (bn): BatchNorm2d(128, eps=0.001, momentum=0.1, affine=True, bias=True, track_running_stats=True)\n      )\n    )\n  )\n  (maxpool4): MaxPool2d(kernel_size=2, stride=2, padding=0, dilation=1, ceil_mode=True)\n  (inception5a): Inception(\n    (branch1): BasicConv2d(\n      (conv): Conv2d(832, 256, kernel_size=(1, 1), stride=(1, 1), bias=False)\n      (bn): BatchNorm2d(256, eps=0.001, momentum=0.1, affine=True, bias=True, track_running_stats=True)\n    )\n    (branch2): Sequential(\n      (0): BasicConv2d(\n        (conv): Conv2d(832, 160, kernel_size=(1, 1), stride=(1, 1), bias=False)\n        (bn): BatchNorm2d(160, eps=0.001, momentum=0.1, affine=True, bias=True, track_running_stats=True)\n      )\n      (1): BasicConv2d(\n        (conv): Conv2d(160, 320, kernel_size=(3, 3), stride=(1, 1), padding=(1, 1), bias=False)\n        (bn): BatchNorm2d(320, eps=0.001, momentum=0.1, affine=True, bias=True, track_running_stats=True)\n      )\n    )\n    (branch3): Sequential(\n      (0): BasicConv2d(\n        (conv): Conv2d(832, 32, kernel_size=(1, 1), stride=(1, 1), bias=False)\n        (bn): BatchNorm2d(32, eps=0.001, momentum=0.1, affine=True, bias=True, track_running_stats=True)\n      )\n      (1): BasicConv2d(\n        (conv): Conv2d(32, 128, kernel_size=(3, 3), stride=(1, 1), padding=(1, 1), bias=False)\n        (bn): BatchNorm2d(128, eps=0.001, momentum=0.1, affine=True, bias=True, track_running_stats=True)\n      )\n    )\n    (branch4): Sequential(\n      (0): MaxPool2d(kernel_size=3, stride=1, padding=1, dilation=1, ceil_mode=True)\n      (1): BasicConv2d(\n        (conv): Conv2d(832, 128, kernel_size=(1, 1), stride=(1, 1), bias=False)\n        (bn): BatchNorm2d(128, eps=0.001, momentum=0.1, affine=True, bias=True, track_running_stats=True)\n      )\n    )\n  )\n  (inception5b): Inception(\n    (branch1): BasicConv2d(\n      (conv): Conv2d(832, 384, kernel_size=(1, 1), stride=(1, 1), bias=False)\n      (bn): BatchNorm2d(384, eps=0.001, momentum=0.1, affine=True, bias=True, track_running_stats=True)\n    )\n    (branch2): Sequential(\n      (0): BasicConv2d(\n        (conv): Conv2d(832, 192, kernel_size=(1, 1), stride=(1, 1), bias=False)\n        (bn): BatchNorm2d(192, eps=0.001, momentum=0.1, affine=True, bias=True, track_running_stats=True)\n      )\n      (1): BasicConv2d(\n        (conv): Conv2d(192, 384, kernel_size=(3, 3), stride=(1, 1), padding=(1, 1), bias=False)\n        (bn): BatchNorm2d(384, eps=0.001, momentum=0.1, affine=True, bias=True, track_running_stats=True)\n      )\n    )\n    (branch3): Sequential(\n      (0): BasicConv2d(\n        (conv): Conv2d(832, 48, kernel_size=(1, 1), stride=(1, 1), bias=False)\n        (bn): BatchNorm2d(48, eps=0.001, momentum=0.1, affine=True, bias=True, track_running_stats=True)\n      )\n      (1): BasicConv2d(\n        (conv): Conv2d(48, 128, kernel_size=(3, 3), stride=(1, 1), padding=(1, 1), bias=False)\n        (bn): BatchNorm2d(128, eps=0.001, momentum=0.1, affine=True, bias=True, track_running_stats=True)\n      )\n    )\n    (branch4): Sequential(\n      (0): MaxPool2d(kernel_size=3, stride=1, padding=1, dilation=1, ceil_mode=True)\n      (1): BasicConv2d(\n        (conv): Conv2d(832, 128, kernel_size=(1, 1), stride=(1, 1), bias=False)\n        (bn): BatchNorm2d(128, eps=0.001, momentum=0.1, affine=True, bias=True, track_running_stats=True)\n      )\n    )\n  )\n  (aux1): None\n  (aux2): None\n  (avgpool): AdaptiveAvgPool2d(output_size=(1, 1))\n  (dropout): Dropout(p=0.2, inplace=False)\n  (fc): Linear(in_features=1024, out_features=62, bias=True)\n)",
    "history": {
        "loss": [
            … "accuracy": [
            … "val_loss": [
            … "val_accuracy": [
            … "name": "GoogLeNet_fc_pretrained_train",
    "phase": "transfer_learning_pretrained_classifier_train",
    "evaluation": {
        "best_val_loss": 0.8252718762716779,
        "best_val_accuracy": 0.7502146659797355,
…
