{
    "created_at": "2026-05-17T12:17:16.168136",
    "dataset": {
        "train_count": 58612,
        "test_count": 11002,
        "image_size": [
            128,
            128,
            3
        ],
        "classes": 62
    },
    "training": {
        "epochs": 40,
        "batch_size": 32,
        "optimizer": "adam",
        "learning_rate": 0.0003,
        "loss": "nll_loss_with_log_softmax_output",
        "metrics": [
            "accuracy"
        ]
    },
    "model_architecture": "Sequential(\n  (0): Conv2d(3, 32, kernel_size=(5, 5), stride=(1, 1), padding=(2, 2))\n  (1): ReLU()\n  (2): Conv2d(32, 64, kernel_size=(5, 5), stride=(1, 1), padding=(2, 2))\n  (3): ReLU()\n  (4): MaxPool2d(kernel_size=(3, 3), stride=(2, 2), padding=0, dilation=1, ceil_mode=False)\n  (5): Conv2d(64, 128, kernel_size=(5, 5), stride=(1, 1), padding=(2, 2))\n  (6): ReLU()\n  (7): MaxPool2d(kernel_size=(3, 3), stride=(2, 2), padding=0, dilation=1, ceil_mode=False)\n  (8): Conv2d(128, 256, kernel_size=(5, 5), stride=(1, 1), padding=(2, 2))\n  (9): ReLU()\n  (10): MaxPool2d(kernel_size=(3, 3), stride=(2, 2), padding=0, dilation=1, ceil_mode=False)\n  (11): Conv2d(256, 512, kernel_size=(5, 5), stride=(1, 1), padding=(2, 2))\n  (12): ReLU()\n  (13): MaxPool2d(kernel_size=(3, 3), stride=(2, 2), padding=0, dilation=1, ceil_mode=False)\n  (14): Conv2d(512, 1024, kernel_size=(5, 5), stride=(1, 1), padding=(2, 2))\n  (15): ReLU()\n  (16): MaxPool2d(kernel_size=(3, 3), stride=(2, 2), padding=0, dilation=1, ceil_mode=False)\n  (17): Flatten(start_dim=1, end_dim=-1)\n  (18): Linear(in_features=9216, out_features=512, bias=True)\n  (19): ReLU()\n  (20): Linear(in_features=512, out_features=256, bias=True)\n  (21): ReLU()\n  (22): Linear(in_features=256, out_features=64, bias=True)\n  (23): ReLU()\n  (24): Linear(in_features=64, out_features=62, bias=True)\n  (25): Softmax(dim=1)\n)",
    "history": {
        "loss": [
            1.6873537038869804,
            0.07800608187805559,
            0.054210911727540896,
            0.03101530493869237,
            0.03939257995675257
        ],
        "accuracy": [
            0.5430116699651948,
            0.9784685729884666,
            0.9859926294956665,
…
