…
    "created_at": "2026-06-01T09:08:03.493210",
    "dataset": {
        "train_count": 58521,
        "val_count": 11646,
        "image_size": [
            128,
            128,
            3
        ],
        "classes": 62
    },
    "training": {
        "epochs": 40,
        "batch_size": 32,
        "optimizer": "adam",
        "learning_rate": 0.0001,
        "loss": "cross_entropy_loss",
        "metrics": [
            "accuracy"
        ],
        "trained_part": "feature_extractor_frozen_classifier_trainable"
    },
    "model_architecture": "VGG(\n  (features): Sequential(\n    (0): Conv2d(3, 64, kernel_size=(3, 3), stride=(1, 1), padding=(1, 1))\n    (1): ReLU(inplace=True)\n    (2): MaxPool2d(kernel_size=2, stride=2, padding=0, dilation=1, ceil_mode=False)\n    (3): Conv2d(64, 128, kernel_size=(3, 3), stride=(1, 1), padding=(1, 1))\n    (4): ReLU(inplace=True)\n    (5): MaxPool2d(kernel_size=2, stride=2, padding=0, dilation=1, ceil_mode=False)\n    (6): Conv2d(128, 256, kernel_size=(3, 3), stride=(1, 1), padding=(1, 1))\n    (7): ReLU(inplace=True)\n    (8): Conv2d(256, 256, kernel_size=(3, 3), stride=(1, 1), padding=(1, 1))\n    (9): ReLU(inplace=True)\n    (10): MaxPool2d(kernel_size=2, stride=2, padding=0, dilation=1, ceil_mode=False)\n    (11): Conv2d(256, 512, kernel_size=(3, 3), stride=(1, 1), padding=(1, 1))\n    (12): ReLU(inplace=True)\n    (13): Conv2d(512, 512, kernel_size=(3, 3), stride=(1, 1), padding=(1, 1))\n    (14): ReLU(inplace=True)\n    (15): MaxPool2d(kernel_size=2, stride=2, padding=0, dilation=1, ceil_mode=False)\n    (16): Conv2d(512, 512, kernel_size=(3, 3), stride=(1, 1), padding=(1, 1))\n    (17): ReLU(inplace=True)\n    (18): Conv2d(512, 512, kernel_size=(3, 3), stride=(1, 1), padding=(1, 1))\n    (19): ReLU(inplace=True)\n    (20): MaxPool2d(kernel_size=2, stride=2, padding=0, dilation=1, ceil_mode=False)\n  )\n  (avgpool): AdaptiveAvgPool2d(output_size=(7, 7))\n  (classifier): Sequential(\n    (0): Linear(in_features=25088, out_features=4096, bias=True)\n    (1): ReLU(inplace=True)\n    (2): Dropout(p=0.5, inplace=False)\n    (3): Linear(in_features=4096, out_features=4096, bias=True)\n    (4): ReLU(inplace=True)\n    (5): Dropout(p=0.5, inplace=False)\n    (6): Linear(in_features=4096, out_features=62, bias=True)\n  )\n)",
    "history": {
        "loss": [
            0.408499142228289,
            0.050166535684779134,
            0.040249966261061254
        ],
        "accuracy": [
            0.8840928897318912,
            0.9851335418055057,
            0.9887732608807095
        ],
        "val_loss": [
            0.311878049033053,
            0.41532342324018157,
…
